…
own-stream task to be able to use it for predictions and inference.\n"},"children":[],"key":"yd6NecPuwL"}],"key":"AxNNCxanSI"}],"key":"pmldMnpHFu"},{"type":"block","kind":"notebook-code","children":[{"type":"code","lang":"python","executable":true,"value":"model","key":"Dxk3teQuZd"},{"type":"outputs","id":"NYWzqvvrMwu0ioeHkJtco","children":[{"type":"output","jupyter_data":{"output_type":"execute_result","execution_count":29,"metadata":{},"data":{"text/plain":{"content":"DistilBertForSequenceClassification(\n  (distilbert): DistilBertModel(\n    (embeddings): Embeddings(\n      (word_embeddings): Embedding(30522, 768, padding_idx=0)\n      (position_embeddings): Embedding(512, 768)\n      (LayerNorm): LayerNorm((768,), eps=1e-12, elementwise_affine=True)\n      (dropout): Dropout(p=0.1, inplace=False)\n    )\n    (transformer): Transformer(\n      (layer): ModuleList(\n        (0-5): 6 x TransformerBlock(\n          (attention): DistilBertSdpaAttention(\n            (dropout): Dropout(p=0.1, inplace=False)\n            (q_lin): Linear(in_features=768, out_features=768, bias=True)\n            (k_lin): Linear(in_features=768, out_features=768, bias=True)\n            (v_lin): Linear(in_features=768, out_features=768, bias=True)\n            (out_lin): Linear(in_features=768, out_features=768, bias=True)\n          )\n          (sa_layer_norm): LayerNorm((768,), eps=1e-12, elementwise_affine=True)\n          (ffn): FFN(\n            (dropout): Dropout(p=0.1, inplace=False)\n            (lin1): Linear(in_features=768, out_features=3072, bias=True)\n            (lin2): Linear(in_features=3072, out_features=768, bias=True)\n            (activation): GELUActivation()\n          )\n          (output_layer_norm): LayerNorm((768,), eps=1e-12, elementwise_affine=True)\n        )\n      )\n    )\n  )\n  (pre_classifier): Linear(in_features=768, out_features=768, bias=True)\n  (classifier): Linear(in_features=768, out_features=3, bias=True)\n  (dropout): Dropout(p=0.2, inplace=False)\n)","content_type":"text/plain"}}},"children":[],"key":"GETJrLB7r1"}],"key":"EurRfa3Plv"}],"key":"HRted5UReG"},{"type":"block","kind":"notebook-code","children":[{"type":"code","lang":"python","executable":true,"value":"inputs = tokenizer(\"I purchased these boots to use both for everyday wear and when riding m
…
